2024-12-09 13:18:30 INFO     Saving logs in: ./logs/Poisson/12_09/MLP_13_18_30
2024-12-09 13:18:30 INFO     Loading Poisson dataset
2024-12-09 13:19:35 INFO     Loading data costs  64.75s
2024-12-09 13:19:35 INFO     Building models
2024-12-09 13:19:35 INFO     Model: MLP(
  (processor): Sequential(
    (0): Linear(in_features=3, out_features=128, bias=True)
    (1): ReLU()
    (2): BatchNorm1d(128, eps=1e-05, momentum=0.1, affine=True, track_running_stats=True)
    (3): Linear(in_features=128, out_features=128, bias=True)
    (4): ReLU()
    (5): BatchNorm1d(128, eps=1e-05, momentum=0.1, affine=True, track_running_stats=True)
    (6): Linear(in_features=128, out_features=128, bias=True)
    (7): ReLU()
    (8): BatchNorm1d(128, eps=1e-05, momentum=0.1, affine=True, track_running_stats=True)
    (9): Linear(in_features=128, out_features=128, bias=True)
    (10): ReLU()
    (11): BatchNorm1d(128, eps=1e-05, momentum=0.1, affine=True, track_running_stats=True)
    (12): Linear(in_features=128, out_features=128, bias=True)
    (13): ReLU()
    (14): Linear(in_features=128, out_features=1, bias=True)
  )
)
2024-12-09 13:19:35 INFO     Criterion: <utils.loss.LpLoss object at 0x7f94d02ceb30>
2024-12-09 13:19:35 INFO     Optimizer: AdamW (
Parameter Group 0
    amsgrad: False
    betas: (0.9, 0.999)
    capturable: False
    differentiable: False
    eps: 1e-08
    foreach: None
    fused: None
    initial_lr: 0.001
    lr: 0.001
    maximize: False
    weight_decay: 0.0001
…
